> /group/ossdphi_algo_scratch_13/guanchen/AMD-Model-Optimizer/src/optimization/sparsification/blockwise_sparsification.py(90)block_transform()
-> for index, subset in enumerate(subsets):
(Pdb) [{'layers': {'self_attn.q_proj': Linear(in_features=2048, out_features=2048, bias=False), 'self_attn.k_proj': Linear(in_features=2048, out_features=512, bias=False), 'self_attn.v_proj': Linear(in_features=2048, out_features=512, bias=False)}, 'prev_op': [LlamaRMSNorm((2048,), eps=1e-05)], 'input': ['self_attn.q_proj'], 'inspect': LlamaAttention(
  (q_proj): Linear(in_features=2048, out_features=2048, bias=False)
  (k_proj): Linear(in_features=2048, out_features=512, bias=False)
  (v_proj): Linear(in_features=2048, out_features=512, bias=False)
  (o_proj): Linear(in_features=2048, out_features=2048, bias=False)
), 'has_kwargs': True}, {'layers': {'self_attn.o_proj': Linear(in_features=2048, out_features=2048, bias=False)}, 'prev_op': [Linear(in_features=2048, out_features=512, bias=False)], 'input': ['self_attn.o_proj'], 'inspect': Linear(in_features=2048, out_features=2048, bias=False), 'has_kwargs': False}, {'layers': {'mlp.gate_proj': Linear(in_features=2048, out_features=8192, bias=False), 'mlp.up_proj': Linear(in_features=2048, out_features=8192, bias=False)}, 'prev_op': [LlamaRMSNorm((2048,), eps=1e-05)], 'input': ['mlp.gate_proj'], 'inspect': LlamaMLP(
  (gate_proj): Linear(in_features=2048, out_features=8192, bias=False)
  (up_proj): Linear(in_features=2048, out_features=8192, bias=False)
  (down_proj): Linear(in_features=8192, out_features=2048, bias=False)
  (act_fn): SiLU()
), 'has_kwargs': False, 'is_mlp': True}, {'layers': {'mlp.down_proj': Linear(in_features=8192, out_features=2048, bias=False)}, 'prev_op': [Linear(in_features=2048, out_features=8192, bias=False)], 'input': ['mlp.down_proj'], 'inspect': Linear(in_features=8192, out_features=2048, bias=False), 'has_kwargs': False, 'is_mlp': True}]
(Pdb) {'layers': {'self_attn.q_proj': Linear(in_features=2048, out_features=2048, bias=False), 'self_attn.k_proj': Linear(in_features=2048, out_features=512, bias=False), 'self_attn.v_proj': Linear(in_features=2048, out_features=512, bias=False)}, 'prev_op': [LlamaRMSNorm((2048,), eps=1e-05)], 'input': ['self_attn.q_proj'], 'inspect': LlamaAttention(
  (q_proj): Linear(in_features=2048, out_features=2048, bias=False)
  (k_proj): Linear(in_features=2048, out_features=512, bias=False)
  (v_proj): Linear(in_features=2048, out_features=512, bias=False)
  (o_proj): Linear(in_features=2048, out_features=2048, bias=False)
), 'has_kwargs': True}
(Pdb) [{'attention_mask': None, 'position_ids': tensor([[   0,    1,    2,  ..., 4093, 4094, 4095]], device='cuda:0'), 'past_key_value': None, 'output_attentions': False, 'cache_position': tensor([   0,    1,    2,  ..., 4093, 4094, 4095], device='cuda:0'), 'position_embeddings': (tensor([[[ 1.0000,  1.0000,  1.0000,  ...,  1.0000,  1.0000,  1.0000],
…
